Final Assignment/data/Q2_b2.npy (npy, 1728 bytes, 1 tensors)

array f8 [200]
5.775368434933513 -5.7279737344794945 -1.8858249455490252 3.871985375089778 -2.9796029992478226 3.752443084797625 8.830705118225923 -5.633543857883479
-2.0916461145654646 4.032522222912723 -3.296975662823266 8.851868443215396 1.2833614193485556 5.302202447316425 -3.0272166516162855 2.0123387904445877
11.393334191734073 -0.6960321194700346 -0.7077508616631074 0.8322187291434209 3.329632298498302 -3.5184515934610245 -3.8105141629750903 0.31612949981318483
1.5955341809830617 -5.465146002524658 8.333395626024524 6.876586405286807 -4.160844620485682 3.453782029042531 -2.48617203753093 0.7277487934583863
-6.827383748864761 6.369235187098363 -14.923686727803855 -12.019745006605033 3.261700850610513 6.216242183381484 -13.214096461151563 -8.733438967567501
14.415848714278864 4.354911157690745 -1.4059285206124006 3.229657208441089 -1.513866254270932 3.614379499725948 -4.7909860142364336 5.669350596346901
2.0053095081463277 1.7473094159540565 -5.180131799996681 6.6009604572238505 -12.478433345148096 -3.6081828972631564 -1.7595220888379253 -3.1960434237232023
6.766535249539681 -6.885018615909965 2.491134407297438 -2.9157609463051495 3.8439795588932144 8.260413863187317 0.5142608061085048 -11.452483677882478
1.872485448394373 -7.167328806620226 -0.7724182275813137 4.937630555311023 -15.971561048183018 -4.194489350727923 -4.646834263287821 4.814160067140349
10.822371860478542 6.472969000468025 -6.6563679399544124 0.7694347178153984 10.0628260233089 1.1105574501373225 -7.046504364416966 11.773328423617352
-0.826660980716795 3.0114137820885505 8.895041206584304 3.62971032259125 -0.16303183891416717 5.656733603567523 -5.485459175917776 -2.665930145874697
-3.472898919292759 -3.187112557972725 -2.3076066754341724 -13.115266321158543 5.97649748767664 -9.148922037866626 1.6841839111872599 -8.344336862624811
8.535699686053993 1.4142508630682669 7.1478564479081825 0.7019663319285874 6.7273612555470725 5.178596359954858 5.069441002938117 -2.6995834902487
-7.23854918191189 1.3294513461748716 -2.5126084110018536 -3.376090823247004 0.13203043881676313 -2.2511670188771626 -1.3559022526590596 -7.69014876611352
2.8720135204131747 0.153661605796325 0.06270726747473332 -2.914568004325159 -3.844398040429413 -1.5550507063114742 6.138844518587077 5.895888293091669
5.647277917350383 4.918544139061944 4.259004298134701 -1.3942127260073134 -2.668408141882521 0.27142398445260263 -3.749929259150836 3.1763491097920418
0.8345300974825168 -5.033112236246883 6.4955113965266404 6.0070873062598675 -4.137954773946879 -2.3188290870535186 3.8729090356011104 -5.137931940214929
1.0788531717336818 -3.29459943960211 -6.681886887489854 -0.8875935551606899 -4.253089733433686 7.118688458790911 6.926824692925578 -4.451736238515468
17.870354171385326 -1.4522188285151931 -0.45151254746987873 -4.343408449062938 2.0748789249730697 8.073870108201337 -1.3577439836825211 -1.6847987692030293
-3.539383698534808 4.3437801260232884 0.030406140633459672 10.964337107917876 -3.141694444162737 -2.795490300112923 -1.0069500344154776 1.040151373833234
-6.490161508664502 4.413592390389946 5.432988572779041 -4.99800100826962 8.699900594936691 3.6508128845107963 2.356820413631712 0.6872003846239396
4.6324514800686245 9.900875605929198 6.403433385342041 8.466833286628745 10.76142469439621 -4.127787654506631 3.7032519825502646 -4.447742505522486
-7.069970997990632 -1.5122912251462153 2.616997537392445 -4.349387843067748 -1.1246685869908688 2.234065410240686 0.5616898040497551 2.5987089509154058
0.2922574574655921 8.213156104406165 -2.7860499954732107 -1.101214038861578 -1.8372336468158381 -2.670959173320207 -16.47009273058886 -12.273469928715814
2.303390197832267 -1.0118466283036285 -4.659973908001822 1.6579825805097403 -10.287639552601668 5.908818019538452 4.678255386012448 -12.81447496327347
00000000: 818f d92e fa19 1740 e4be 57f2 71e9 16c0
00000010: 20d3 31c7 562c febf 9fce e477 d3f9 0e40
00000020: cda9 e618 3ad6 07c0 0d75 4ae1 0005 0e40
00000030: e1cc 662e 52a9 2140 cec3 98b8 bf88 16c0
00000040: c2e9 46f5 b0bb 00c0 a636 6f81 4d21 1040
00000050: 5345 bcc6 3460 0ac0 8935 c019 28b4 2140
00000060: 92cd d0fb a588 f43f 18fb ef8e 7435 1540
00000070: e0c9 245d bd37 08c0 2074 6b14 4519 0040
00000080: faca 6319 63c9 2640 11dc c226 e545 e6bf
00000090: 3ce2 9122 e5a5 e6bf 0445 192c 89a1 ea3f
000000a0: 4c0b 2e42 16a3 0a40 23cb f3f2 c925 0cc0
000000b0: f361 77d9 ee7b 0ec0 e2e6 bf39 773b d43f
000000c0: ee8e 6fd9 4e87 f93f 8bd5 d23b 4fdc 15c0
000000d0: 3fcf dcd4 b2aa 2040 d74c dbdd 9f81 1b40
000000e0: e7e4 c273 b4a4 10c0 6500 f278 58a1 0b40
000000f0: 7666 4b2a aee3 03c0 696e 73d6 b749 e73f
00000100: cf76 7aaf 3d4f 1bc0 ca7a f4c9 187a 1940
00000110: 6855 7f77 edd8 2dc0 7f41 7b04 1c0a 28c0
00000120: 08a9 959d f617 0a40 728e 4697 6edd 1840
00000130: acab 250d 9e6d 2ac0 fca0 f64f 8577 21c0
00000140: 9fd2 671f ead4 2c40 aa11 9dd4 6d6b 1140
00000150: e8b3 88e7 ae7e f6bf 6e5c bc84 56d6 0940
00000160: 6ac9 49d2 cb38 f8bf 0e3f 95cc 3fea 0c40
00000170: 9bf4 da3c f829 13c0 df78 233e 6aad 1640
00000180: 45c5 1eb6 df0a 0040 a03f d8b7 faf4 fb3f
00000190: 49d2 7778 74b8 14c0 d2dc 972d 6267 1a40
000001a0: 3374 2537 f5f4 28c0 b2da adfe 8edd 0cc0
000001b0: 3d60 42a2 0027 fcbf 6de5 eb36 7f91 09c0
000001c0: 3a04 d09d ee10 1b40 eabc ee51 428a 1bc0
000001d0: 4243 4ae0 d7ed 0340 52ad 9a79 7a53 07c0
000001e0: ca82 df5a 78c0 0e40 0ca1 43f7 5485 2040
000001f0: 5238 fb13 d374 e03f 45f5 ccf0 abe7 26c0
00000200: 866f 314d b3f5 fd3f 4873 203e 58ab 1cc0
00000210: 0f79 496e a6b7 e8bf 272a 6b39 22c0 1340
00000220: ef06 2073 70f1 2fc0 d32f 6337 28c7 10c0
00000230: 8703 9bb8 5b96 12c0 cf4e 382d b341 1340
00000240: e1cf abec 0da5 2540 be20 54fc 51e4 1940
00000250: 06fd d0ea 1ea0 1ac0 6e92 ad8e 359f e83f
00000260: 20e6 86bb 2a20 2440 06b4 8ae3 d7c4 f13f
00000270: 252b 11d7 9e2f 1cc0 ed01 01b4 f18b 2740
00000280: 7dda a1ba 0174 eabf 1a5a e61b 6017 0840
00000290: 35b4 4dd7 42ca 2140 3edd cb90 a509 0d40
000002a0: 50ea 2b30 3ade c4bf e706 16c6 7ea0 1640
000002b0: 9970 d035 1cf1 15c0 619e 2f2f d353 05c0
000002c0: be68 853a 7fc8 0bc0 604f 69de 347f 09c0
000002d0: 202b 187d fa75 02c0 9069 ef2f 043b 2ac0
000002e0: 11ca 18f5 eee7 1740 e894 6482 3f4c 22c0
000002f0: 78fa 2fd4 6af2 fa3f c68f d7eb 4cb0 20c0
00000300: a328 b03a 4712 2140 d97c 5383 c5a0 f63f
00000310: d012 41ae 6797 1c40 f8d7 d018 8276 e63f
00000320: 07cf 9363 d1e8 1a40 56c3 d4f6 e1b6 1440
00000330: 8c7b d28a 1b47 1440 8284 9b3a bf98 05c0
00000340: 4d32 9b3c 46f4 1cc0 a41b 57c6 6e45 f53f
00000350: 8942 4770 d219 04c0 6f5f d1e7 3b02 0bc0
00000360: 0cb3 6598 5fe6 c03f 324a 9fda 6302 02c0
00000370: ede4 7b8f c6b1 f5bf 4c54 af5b b6c2 1ec0
00000380: 5cc1 7e39 e2f9 0640 4be5 c5f9 2eab c33f
00000390: 7087 065f 950d b03f 3a5b a407 0951 07c0
000003a0: 459b 83c2 53c1 0ec0 f6ab 73d9 7ce1 f8bf
000003b0: cf3d ea41 2d8e 1840 bcca 9ebd 6395 1740
000003c0: 84c5 b905 d096 1640 69d0 b4d5 96ac 1340
000003d0: 430c 386c 3809 1140 0ce5 dd00 b24e f6bf
000003e0: dc1f 2e5e e658 05c0 72bb 24b4 025f d13f
000003f0: 49ee 52e9 daff 0dc0 5fe2 d9b8 2969 0940
00000400: 1de2 8676 78b4 ea3f 751c 8f2c e821 14c0
00000410: 4382 eb56 67fb 1940 5669 12e5 4107 1840
00000420: 36b7 2904 448d 10c0 6744 af43 f68c 02c0
00000430: 3e51 82bb b7fb 0e40 1330 d107 3e8d 14c0
00000440: 3783 1c8b fb42 f13f 8216 74f3 565b 0ac0
00000450: 515c 658e 40ba 1ac0 f2c6 7199 2a67 ecbf
00000460: 4434 80f4 2903 11c0 adad a377 8979 1c40
00000470: 60f6 4488 11b5 1b40 335e cbf1 93ce 11c0
00000480: 8309 ee87 cfde 3140 22bb 71cf 493c f7bf
00000490: 4579 47e2 94e5 dcbf e494 e776 a65f 11c0
000004a0: 0e5a 2f1f 5a99 0040 e2c0 854d d225 2040
000004b0: 6f1d 64c1 51b9 f5bf c916 e18d eff4 fabf
000004c0: c59e 8966 a850 0cc0 9e23 b9e5 0760 1140
000004d0: f81f 798e c922 9f3f 2ba7 e997 bded 2540
000004e0: 7ea1 5db2 3022 09c0 6e29 ba04 2a5d 06c0
000004f0: 2d54 a8a3 771c f0bf 260d 58c4 75a4 f03f
00000500: 63e3 05e6 ecf5 19c0 aa65 7ac3 84a7 1140
00000510: c382 3e5b 61bb 1540 7a92 eff9 f3fd 13c0
00000520: 7768 eb5e 5966 2140 7a50 b662 dd34 0d40
00000530: 46bf 38a9 c4da 0240 2845 38a9 8bfd e53f
00000540: 60ce 5c5c a187 1240 ce75 4291 3fcd 2340
00000550: 70a2 30a4 1d9d 1940 6282 c5c5 04ef 2040
00000560: d798 2175 d985 2540 0dc1 53c4 da82 10c0
00000570: 5334 4f93 42a0 0d40 22fe e802 7dca 11c0
00000580: 2a27 307a a647 1cc0 067e a048 5832 f8bf
00000590: 3481 a667 9cef 0440 4362 3eed c565 11c0
000005a0: d36d ff7c a4fe f1bf 5ade 90af 5ddf 0140
000005b0: b87d 5ce5 5cf9 e13f 7908 20eb 27ca 0440
000005c0: c5ea 749f 58b4 d23f 07bc 02cc 226d 2040
000005d0: 8aa0 7c94 d449 06c0 a2e7 ac9c 929e f1bf
000005e0: 1af5 c21b 4f65 fdbf 52e4 d2d7 1f5e 05c0
000005f0: 6cf7 47ff 5778 30c0 398c 2040 048c 28c0
00000600: b5ee 0cd7 576d 0240 7a1c 1217 8630 f0bf
00000610: 1653 3c33 d0a3 12c0 4808 0abe 1887 fa3f
00000620: a4eb ce7d 4593 24c0 89bb df30 a1a2 1740
00000630: 8b09 7594 88b6 1240 3957 c5dc 02a1 29c0
