Final Assignment/data/Q2_b1.npy (npy, 928 bytes, 1 tensors)

array f8 [100]
4.05016259619422 0.6693938231499412 -3.4322149522920107 -1.845564399592757 3.354484459834651 3.440495687809325 -2.635169292678768 1.4686052592555427
5.639974381389491 3.3911890464635017 2.7872703799418113 0.050211458424501865 3.3145620001095426 3.3051556672388798 -3.232240544833626 -2.679893799157025
3.1070103502869593 2.389750639602792 2.8620154607996318 -4.9872143137403295 0.5682901780796485 2.259968040632918 3.2930963528899664 1.1710915129302157
-0.03558066881564281 0.4757456662657445 1.240611735761781 -3.1318079801489898 -5.088332154959565 -2.796224121973144 -3.232426678577679 -3.145101114986821
-0.5887286424506347 -2.5342372843990852 0.4369039436799404 -0.7194355298570134 -8.31267400886122 -0.2663651693974016 0.5696395733892898 2.863870035285278
-2.1560001342351356 -1.8085174074279462 2.397703820848027 1.1078476748368462 -1.6701152942118014 -0.9384874270901457 0.35744654839360734 0.07349486277167211
-2.92978648191615 -0.40532997411876837 -1.1697249367288762 2.869708736005178 1.2391622400076 -5.044696540970369 1.9522271889898057 -1.4004468832528356
3.3770414697359104 -0.09028831501969958 1.9810744596779126 0.24884211556146252 -1.0293394358898627 -2.394005470361178 0.8244992340113132 1.36975157107174
-2.4658800181445732 4.696395646321731 -1.3996562728930348 1.1930793814368779 2.6138733908114613 1.733435511371528 -2.1303013289395323 4.032387616542027
-0.1939387838597796 -0.531861914461673 -1.8543465007377016 0.045575357438636 5.660335823222317 -0.592249570591994 5.391976029816794 0.5250927507545093
-1.1938046038094157 4.112457278527289 -3.9147734392996516 -1.1938209827786983 2.0218360683187315 1.418682717529495 -0.31086940180112815 -4.251749567874378
-0.10075933668280013 4.767613471772168 0.542290876678801 -1.933922019699888 2.1371590840350616 -4.586705367667411 -1.1494917290409896 -0.7842864511437727
2.8028449622071583 7.009204038288847 -1.0370927478987402 0.08503590499102173
00000000: e88b d8d2 5d33 1040 5659 5298 ac6b e53f
00000010: b87d e71c 2d75 0bc0 b29a 2e89 6e87 fdbf
00000020: bf70 cff2 fbd5 0a40 515c 699a 2286 0b40
00000030: 81d4 5ba3 d314 05c0 4dc7 733a 687f f73f
00000040: fe61 b971 558f 1640 cfe9 08b9 2721 0b40
00000050: 35ad b769 544c 0640 78a9 a2f7 50b5 a93f
00000060: 5747 f814 3984 0a40 23d7 5774 f570 0a40
00000070: d8ec 46ee a0db 09c0 980f 0129 6c70 05c0
00000080: 2887 163e 28db 0840 3983 5595 351e 0340
00000090: 0e3f a65c 68e5 0640 96a1 1e4f e8f2 13c0
000000a0: f4ae 2fe2 6e2f e23f 4c30 c41f 6a14 0240
000000b0: 0cea 91e6 4258 0a40 f688 4a74 cabc f23f
000000c0: 40b1 dd21 a137 a2bf 7dce 74f3 9d72 de3f
000000d0: 1d17 02b1 8bd9 f33f dcbb a057 f10d 09c0
000000e0: 36f2 92be 735a 14c0 aa49 a1c0 aa5e 06c0
000000f0: 1bac b984 02dc 09c0 2dda fbc5 2a29 09c0
00000100: 1168 3173 ddd6 e2bf 2562 8632 1e46 04c0
00000110: 3f52 66f5 3bf6 db3f 2a1f 0aa9 9d05 e7bf
00000120: 7fbc c4ce 16a0 20c0 e4bd d67e 200c d1bf
00000130: 4cdc 46c5 7c3a e23f 6a5b 6cb1 34e9 0640
00000140: 30b1 95ff 7c3f 01c0 5265 f2f2 afef fcbf
00000150: ca4a 4057 7f2e 0340 7bfb c57b beb9 f13f
00000160: 9306 93d0 cab8 fabf 47e6 e1c8 1608 eebf
00000170: c0ca da7c 67e0 d63f 4441 0730 8fd0 b23f
00000180: f9bd 20e5 3370 07c0 c86e bb21 edf0 d9bf
00000190: 200f c97e 31b7 f2bf 7c80 91da 29f5 0640
000001a0: f854 f4c8 9bd3 f33f 26d9 16ee c42d 14c0
000001b0: f02b b193 523c ff3f 6bb2 b5fd 3a68 f6bf
000001c0: 1703 6e51 2e04 0b40 5076 3890 221d b7bf
000001d0: be1e f421 7bb2 ff3f 841a 1af6 0eda cf3f
000001e0: ae14 daa0 2c78 f0bf bd2b 0d57 ec26 03c0
000001f0: 03fb b437 4c62 ea3f 285d 969f 80ea f53f
00000200: 9e53 8e4d 1fba 03c0 4e1d b8f0 1bc9 1240
00000210: 2978 dbf9 fd64 f6bf 51da cc67 da16 f33f
00000220: dc5b cb73 36e9 0440 4f0d f1df 26bc fb3f
00000230: 735d 536c db0a 01c0 a35f 2738 2a21 1040
00000240: 3548 0d6f fcd2 c8bf 0a3a 1347 0305 e1bf
00000250: 70ed 813c 67ab fdbf c8a7 673b a755 a73f
00000260: e677 f412 2fa4 1640 b167 185f b5f3 e2bf
00000270: 2684 132a 6291 1540 fa6e fb4f 8fcd e03f
00000280: 93cf 32db d219 f3bf 32e3 3500 2873 1040
00000290: e154 a8bc 7451 0fc0 6902 e507 e419 f3bf
000002a0: da6a 7a63 b82c 0040 8c08 33a6 ecb2 f63f
000002b0: 0707 84c6 48e5 d3bf d935 83a3 ca01 11c0
000002c0: 50bc d127 5dcb b9bf 03ec 1444 0912 1340
000002d0: d825 8865 725a e13f 2d01 3a37 58f1 febf
000002e0: 3f3d a2dc e618 0140 a613 ba4a c958 12c0
000002f0: 840e 7470 5164 f2bf 0f78 4be6 df18 e9bf
00000300: 3b81 c3fa 396c 0640 55c4 8dc8 6c09 1c40
00000310: 424d b290 ee97 f0bf 6615 ecbe e9c4 b53f
